datumaro/tests/assets/pytorch_launcher/samplenet.pth (torch_old, 249564 bytes, 10 tensors)

conv1.weight f4 [6, 3, 5, 5]
0	0xbc207b8a	-0.009795079
1	0xbddf2af6	-0.10896866
2	0x3df6cc6d	0.1205071
3	0x3df017a6	0.117232606
4	0x3db145bc	0.08655879
5	0x3dba24e7	0.0908907
6	0xbe9277e9	-0.2860711
7	0xbe71b079	-0.23602475
8	0x3e5b8575	0.21437629
9	0x3e41456a	0.18874136
10	0x3e41d200	0.18927765
11	0xbe02465f	-0.12722157
12	0xbf14f9fe	-0.5819396
13	0x3c8c0bb4	0.017095424
14	0x3e9990fa	0.2999342
15	0x3e627812	0.22116116
16	0x3dad7349	0.084692545
17	0xbee8e134	-0.45484316
18	0xbe7cb7b7	-0.24679457
19	0x3e3dc458	0.1853193
20	0x3e7b85a5	0.245627
21	0x3e3d9f4b	0.18517797
22	0xbdf896de	-0.12138151
23	0x3b75c588	0.003750177
24	0xbe06423b	-0.13111202
25	0xbd0b2ecb	-0.033980172
26	0xbe3db4ad	-0.18525954
27	0x3d3d8b3e	0.04627537
28	0x3d00320b	0.031297725
29	0x3b8fc746	0.004387769
30	0x3e21cd00	0.15800858
31	0xbef165af	-0.4714789
32	0xbe92dead	-0.28685513
33	0x3e8f5067	0.2799103
34	0x3e06aa9e	0.13151023
35	0x3e8ed636	0.27897805
36	0xbdfd4b90	-0.12367928
37	0xbeeba857	-0.4602687
38	0xbb61a556	-0.0034430823
39	0x3ec73c66	0.38913268
40	0x3dc39115	0.095491566
41	0x3d584e08	0.05280879
42	0xbe865f1d	-0.2624444
43	0xbe1707a6	-0.14749011
44	0x3d5ea7a1	0.054359082
45	0x3d0278f5	0.031853635
46	0x3d63902a	0.055557407
47	0xbdc17643	-0.09446385
48	0x3cd361c7	0.02580346
49	0xbddf0778	-0.108900964
50	0xbd24e833	-0.040260505
51	0xbe064015	-0.13110383
52	0x3e04b8a2	0.12961057
53	0x3e276abc	0.1634931
54	0x3d835598	0.0641281
55	0x3e6f3d3d	0.23363204
56	0xbeb4cad3	-0.35310993
57	0xbe838318	-0.25685954
58	0x3eb646ae	0.356008
59	0x3d70d778	0.058799237
60	0x3e361e12	0.17784908
61	0xbddff675	-0.1093568
62	0xbefe63b1	-0.49685434
63	0x3dbb318c	0.0914031
64	0x3e8f8b83	0.28036126
65	0x3e82c291	0.25539067
66	0x3cd7d0d0	0.026344687
67	0xbec8e487	-0.39236853
68	0xbe47fdd0	-0.19530416
69	0x3dba2bb0	0.09090364
70	0x3de2db68	0.11077005
71	0x3e2389f7	0.15970598
72	0xbd0198e1	-0.031639937
73	0xbe33c584	-0.17555815
74	0xbce1d875	-0.027569035
75	0x3df58173	0.11987581
76	0x3ea038fc	0.31293476
77	0x3dfa8da9	0.12234051
78	0xbda5328e	-0.08066283
79	0xbc99cd4d	-0.018774653
80	0x3e3ca6ee	0.18423054
81	0x3e0c4076	0.13696465
82	0xbec47a06	-0.38374346
83	0xbee27c2e	-0.44235367
84	0x3e1d1e97	0.153437
85	0x3dca1c0a	0.09868629
86	0xbed46bea	-0.41488582
87	0xbef01405	-0.46890274
88	0x3dc1b918	0.09459132
89	0x3e9f9eb3	0.31175765
90	0xbe506fa6	-0.2035509
91	0xbe6a1d69	-0.22862782
92	0x3de22a1c	0.11043188
93	0x3ecf76c6	0.40520304
94	0x3e077f8e	0.13232252
95	0xba8fbea6	-0.0010966852
96	0xbcc005e3	-0.023440307
97	0x3e74a41b	0.23890726
98	0x3e0940f0	0.13403678
99	0xbdd5bd71	-0.10436524
100	0x3dab88d7	0.083757095
101	0x3e20f4e5	0.1571842
102	0x3de95707	0.11393552
103	0xbe442e8a	-0.19158378
104	0xbe7836dc	-0.24239677
105	0x3eb33a36	0.3500535
106	0x3daea6f5	0.08527938
107	0xbed8cef0	-0.4234538
108	0xbed37b3f	-0.41304967
109	0x3e5beb4f	0.21476482
110	0x3d2cd1d4	0.042192295
111	0xbe88fcf2	-0.26755482
112	0xbecc347a	-0.39883786
113	0x3e1e2178	0.15442455
114	0x3eb4655c	0.3523358
115	0xbe18a936	-0.14908299
116	0xbe9800db	-0.29688153
117	0x3dc6364c	0.09678325
118	0x3eeeac24	0.46615708
119	0x3dca33a2	0.098731294
120	0x3cde6407	0.027147306
121	0xbc16922b	-0.009190123
122	0x3e2605fe	0.16213223
123	0xbcdab8d0	-0.026699454
124	0xbea1db19	-0.3161247
125	0xbc844024	-0.016143866
126	0x3d4d2cce	0.050091557
127	0x3e1fe342	0.15614036
128	0xbe776fd8	-0.24163759
129	0xbe27e6ab	-0.16396587
130	0x3e898b24	0.26863968
131	0x3d4139f6	0.047174416
132	0xbe92899a	-0.28620607
133	0xbe908d52	-0.2823282
134	0x3dd5bd01	0.1043644
135	0x3d119210	0.035539687
136	0xbe8f366c	-0.27971208
137	0xbef902a5	-0.4863483
138	0x3e1afd09	0.15135588
139	0x3eb2e973	0.34943733
140	0xbda3d55a	-0.07999678
141	0xbe109201	-0.14118196
142	0x3c994115	0.018707791
143	0x3f0052a1	0.5012608
144	0xbbe9ccad	-0.007134995
145	0xbd51e6e4	-0.051245585
146	0x3e02e925	0.1278425
147	0x3e1b2624	0.15151268
148	0x3e19a842	0.15005592
149	0xbd5d4b46	-0.054026864
150	0x3db6988e	0.08915816
151	0x3eaf0445	0.34182945
152	0x3e8506bf	0.2598171
153	0x3d68c97b	0.05683277
154	0xbded007f	-0.1157236
155	0x3e5b3ae6	0.21409187
156	0x3e866dbe	0.26255602
157	0x3eb2f7a6	0.34954566
158	0x3e97cfd2	0.29650742
159	0x3ce76aec	0.028249227
160	0x3e8ff010	0.2811284
161	0x3ed233ea	0.41055232
162	0x3e8e786b	0.27826247
163	0x3e76efb2	0.24114874
164	0x3e6016ae	0.21883652
165	0xbd344972	-0.044015355
166	0xbd2bff89	-0.041991744
167	0xbd3f626a	-0.046724714
168	0xbe011e2f	-0.1260917
169	0xbe5752ab	-0.21027629
170	0xbe386d52	-0.18010452
171	0xbe4d88b3	-0.20071678
172	0xbea6a93a	-0.32550985
173	0xbe91aded	-0.28453007
174	0xbe8f88ca	-0.2803405
175	0x3d2aed43	0.041730177
176	0xbdef6a0d	-0.116901495
177	0x3d57338d	0.052539397
178	0xbdca92e8	-0.098913014
179	0xbd83b069	-0.06430132
180	0x3e01b247	0.12665664
181	0x3d224b6e	0.039622717
182	0xbb591191	-0.0033122043
183	0xbd9821e4	-0.07428339
184	0x3ccbc44b	0.024873873
185	0xbe0cff81	-0.13769342
186	0xbc18ad4f	-0.009318664
187	0x3dbc8c10	0.09206402
188	0xbbdb9153	-0.0067006736
189	0x3e13eb51	0.14445235
190	0xbe8c20c4	-0.27368748
191	0xbebe85e8	-0.37211537
192	0xbed426c7	-0.41435835
193	0xbe79e603	-0.24404149
194	0xbd25c1bc	-0.040467963
195	0x3dc87d6d	0.09789548
196	0xbe3cfb57	-0.18455254
197	0xbe8429b1	-0.25813058
198	0xbe1c684e	-0.15274164
199	0x3d250cd7	0.04029545
200	0x3d867cb3	0.06566753
201	0xbd161356	-0.036639534
202	0xbe189f91	-0.1490462
203	0xbcb87634	-0.022517301
204	0xbe04a491	-0.12953402
205	0x3e01a3aa	0.12660089
206	0xbd0aa1f7	-0.033845868
207	0xbd6ade71	-0.057341043
208	0xbda8fb7e	-0.08251093
209	0x3db79e5a	0.0896575
210	0xbd984478	-0.074349344
211	0x3d41cf7e	0.04731702
212	0xbd7d598f	-0.061852988
213	0x3dbe6da0	0.09298253
214	0x3da9ecc1	0.0829711
215	0xbe4b6da6	-0.19866046
216	0xbe6575b6	-0.22408184
217	0xbd850a1a	-0.06496067
218	0xbc33a750	-0.010965183
219	0x3e532010	0.206177
220	0x3cb9c2b3	0.022675848
221	0x3da1aca8	0.0789426
222	0xbab4b74c	-0.0013787537
223	0x3e4444bb	0.19166844
224	0x3e9ea0b4	0.30981982
225	0xbdae8853	-0.085220955
226	0xbe307670	-0.1723268
227	0xbe517460	-0.2045455
228	0xbe448039	-0.19189538
229	0xbc6f6ccd	-0.0146133425
230	0xbdb01139	-0.08597035
231	0xbdb9a1c7	-0.0906406
232	0xbdd3b211	-0.10336698
233	0xbc7f7814	-0.015592594
234	0xbd92186b	-0.071335636
235	0xbe69260f	-0.22768424
236	0xbe206e3e	-0.15667054
237	0xbdcca8ea	-0.09993155
238	0xbe57b5f4	-0.21065503
239	0xbd229feb	-0.03970329
240	0xbe5ee8f4	-0.21768552
241	0xbe79f96a	-0.2441155
242	0xbead356e	-0.33829826
243	0xbe6d9858	-0.23202646
244	0xbea79921	-0.32734016
245	0xbe1d07f3	-0.15335064
246	0xbddd881c	-0.108169764
247	0xbe734d43	-0.23759942
248	0xbe80e118	-0.25171733
249	0xbd9522dd	-0.0728204
250	0xbe33e1c2	-0.17566589
251	0xbe36ff0a	-0.17870727
252	0x3d45ac9e	0.048260324
253	0xbd6d0de0	-0.05787456
254	0xbcb1f83c	-0.021724813
255	0x3db35f14	0.08758369

conv1.bias f4 [6]
0	0x3f23975c	0.6390283
1	0x3d199e1d	0.037504304
2	0xbe3bd953	-0.18344621
3	0x3ecdaa5b	0.40169033
4	0x3e86ea37	0.26350567
5	0xbe11e95e	-0.14249179

conv2.weight f4 [16, 6, 5, 5]
0	0xbcdd5825	-0.02701957
1	0xbc59ae44	-0.013286177
2	0xbe0358d5	-0.12826855
3	0xbe38577d	-0.18002124
4	0xbdc14aac	-0.09438071
5	0x3c9b607e	0.01896691
6	0xbd980e6f	-0.07424628
7	0xbe031bf8	-0.12803638
8	0xbddadfd2	-0.106872216
9	0xbd7efbaf	-0.062251743
10	0x3b5e6e0a	0.00339401
11	0xbd11b3bc	-0.0355718
12	0xbdb14816	-0.086563274
13	0xbe04b7b8	-0.12960708
14	0xbd8e1bde	-0.06938909
15	0xbd8b9529	-0.068155594
16	0x3ce9ac1f	0.028524457
17	0xbc3ba4a0	-0.011452824
18	0xbdb77d7f	-0.08959483
19	0x3cd7cc4c	0.026342534
20	0xbd9757a0	-0.0738976
21	0xbd803ac4	-0.06261209
22	0xbdfa392a	-0.122179344
23	0xbd0613a1	-0.032733563
24	0xbc013cdd	-0.007888046
25	0xbaa7d13b	-0.0012803444
26	0x3c147eff	0.009063481
27	0xbdf10023	-0.11767604
28	0xbe091a51	-0.13388945
29	0xbda2a3ee	-0.07941423
30	0xbd0dfc92	-0.034664698
31	0xbd93b824	-0.072128564
32	0x3c37274e	0.011178805
33	0x3e7e038e	0.24806044
34	0x3e5aada7	0.21355306
35	0xbe357909	-0.17721952
36	0x3c5b89f9	0.013399594
37	0x3e2ae13c	0.16687483
38	0x3d8558f4	0.06511107
39	0x3b761182	0.0037547057
40	0x3dd936a9	0.10606129
41	0x3da08c62	0.07839276
42	0x3d3696c0	0.04457736
43	0xbd73e71b	-0.05954657
44	0xbe1b2dc1	-0.15154172
45	0x3dca990b	0.09892472
46	0x3dbccf0c	0.092191786
47	0x3e47cc56	0.19511542
48	0xbbbb42bc	-0.0057147425
49	0xbdaa9c17	-0.08330553
50	0xbdc39623	-0.09550121
51	0x3b02e10b	0.0019970562
52	0xbdc462e3	-0.09589174
53	0xbd12f4d4	-0.035878018
54	0xbc8f3ee1	-0.017486038
55	0xbdcc8e14	-0.09988037
56	0xbdcc8102	-0.09985544
57	0x3ce25483	0.027628189
58	0x3d05eab8	0.03269455
59	0x3d8ed05d	0.06973336
60	0xbd35ff9a	-0.044433214
61	0x3c36ce9a	0.011157656
62	0xbc87f49d	-0.016596133
63	0xbd2ad315	-0.04170521
64	0x3d8ea623	0.06965282
65	0x3d89519c	0.06705019
66	0x3c46f663	0.012143704
67	0x3c7f27b9	0.015573435
68	0x3dc35404	0.09537509
69	0x3d37cd53	0.044873547
70	0x3cd06997	0.025440974
71	0xbdc7c333	-0.09754028
72	0x3cf3ceda	0.02976172
73	0x3db9d7c3	0.090743564
74	0x3db09b98	0.08623427
75	0xbb8288af	-0.003983579
76	0xbd1a684e	-0.03769713
77	0x3ca2d125	0.019875119
78	0xbdc3cac3	-0.09560158
79	0xbcf7e8fa	-0.03026246
80	0x3dd91168	0.10599023
81	0x3e0727a8	0.13198721
82	0x3c9480c4	0.018127806
83	0x3d10921b	0.035295587
84	0x3dc69953	0.09697213
85	0xbd53bf00	-0.051695824
86	0x3d2bdee9	0.04196063
87	0x3e119ae4	0.14219242
88	0x3e763ced	0.24046679
89	0x3e92103a	0.28528005
90	0xbd09fe86	-0.033689998
91	0xbce22e6e	-0.02761003
92	0x3dbfbe79	0.09362502
93	0x3e32d709	0.17464842
94	0x3e70f952	0.23532608
95	0xbd57ce72	-0.052687116
96	0xbceb7c6b	-0.02874585
97	0x3d9d81c5	0.07690767
98	0x3e457e23	0.19286399
99	0x3e813f99	0.25243834
100	0xbd638e19	-0.055555437
101	0x3c210040	0.00982672
102	0x3d800af3	0.062520884
103	0x3d63478f	0.055488165
104	0x3d90daaf	0.070729606
105	0xbba9df66	-0.005184102
106	0x3d85aca0	0.06527066
107	0xbdc73aea	-0.09728034
108	0xbd6f862e	-0.058477573
109	0xbe088721	-0.13332798
110	0x3d5cde36	0.053922854
111	0xbd8a4236	-0.0675091
112	0xbd599da2	-0.053128846
113	0xbd522e14	-0.051313475
114	0xbd4eb1e6	-0.050462626
115	0x3d4d9d77	0.050199
116	0xbd1065d6	-0.03525337
117	0x3a5e5393	0.00084810815
118	0x3d6fca76	0.05854269
119	0xbd563527	-0.052296784
120	0x3e1cc903	0.15311055
121	0x3dbf8432	0.09351386
122	0x3db13cc9	0.08654172
123	0x3c813c26	0.015775751
124	0xbdc9e779	-0.09858603
125	0xbd48dbce	-0.049037747
126	0xbd26f772	-0.040763326
127	0xbd46b798	-0.048514932
128	0xbd300296	-0.042971216
129	0x3da4a71b	0.08039685
130	0x3d10c9c3	0.035348665
131	0x3d4925b8	0.049108237
132	0x3de03f99	0.1094963
133	0x3e460215	0.19336732
134	0x3dbcafca	0.092132166
135	0xbc8fda99	-0.01756029
136	0xbc5bb567	-0.013409949
137	0x3de25720	0.11051774
138	0x3d45bb62	0.048274405
139	0x3de34f71	0.110991366
140	0x3c375085	0.011188631
141	0x3dd3ce94	0.10342136
142	0x3d2756fb	0.040854435
143	0x3d3580ec	0.044312403
144	0x3dff98c0	0.124803066
145	0xbdba23f4	-0.09088889
146	0xbdaaa67c	-0.083325356
147	0xbd8f7683	-0.07005026
148	0x3d3fe38a	0.046847858
149	0x3dbaae28	0.09115249
150	0x3ca4f112	0.020134483
151	0x3dae7389	0.0851813
152	0xbd098a98	-0.03357944
153	0xbe0cab75	-0.1373728
154	0xbda67fda	-0.081298545
155	0x3dbfdf27	0.09368735
156	0x3a409c0f	0.00073474733
157	0xbdf65157	-0.12027233
158	0xbe053bf3	-0.1301115
159	0xbdae9b6f	-0.0852574
160	0x3df91196	0.121615574
161	0x3cb27397	0.021783633
162	0xbe5ebecf	-0.21752475
163	0xbe5be9e1	-0.21475936
164	0xbdd65184	-0.104647666
165	0x3e1260b7	0.14294706
166	0xbc36d2c9	-0.011158654
167	0xbe140f1e	-0.14458892
168	0xbe3f2bc8	-0.18669045
169	0xbdcaf0f6	-0.09909241
170	0x3e235a0f	0.15952323
171	0xbcfbace3	-0.030722087
172	0xbdccd9d7	-0.10002487
173	0xbe09b7cf	-0.13449024
174	0x3a5a13af	0.0008318973
175	0xbe29f02a	-0.16595522
176	0x3cbbf3f7	0.02294348
177	0x3e03713c	0.12836164
178	0x3d9eab58	0.07747525
179	0xbd6db43a	-0.058033206
180	0xbc4b6a5d	-0.012415496
181	0x3e26bb5f	0.16282414
182	0x3e81b425	0.25332752
183	0x3d3c7bb6	0.046016417
184	0xbcc96fb0	-0.02458939
185	0x3dc93ced	0.09826074
186	0x3e96b9b0	0.29438543
187	0x3e141b64	0.14463574
188	0x3c6a43bc	0.014298376
189	0xbe0f0bf0	-0.13969398
190	0x3e474181	0.19458582
191	0x3e8c2786	0.27373904
192	0xbc19b4c7	-0.00938148
193	0xbdc3da22	-0.0956309
194	0xbd1ec624	-0.03876318
195	0x3e6b101d	0.22955365
196	0x3dba3531	0.09092177
197	0x3d1ab312	0.03776843
198	0xbb970ce3	-0.0046096905
199	0xbd86dce8	-0.06585103
200	0x3da67a37	0.081287794
201	0x3da5be7c	0.08092973
202	0xbd72dd27	-0.05929294
203	0xba204f7f	-0.00061153615
204	0x3de00f96	0.10940473
205	0x3cf31bd8	0.029676363
206	0xbd2a2c33	-0.041546058
207	0x3cdc020b	0.026856443
208	0xbd1487a4	-0.03626217
209	0xba5d9ed8	-0.00084541505
210	0x3da323c2	0.07965805
211	0xbddbf94f	-0.10740911
212	0xbdd09b68	-0.101858914
213	0x3d95524f	0.0729109
214	0xbc085913	-0.008322018
215	0x3c8f3dcf	0.017485527
216	0xbd7f4b2d	-0.062327553
217	0xbce5dc39	-0.028059112
218	0xbb9fdf82	-0.004878939
219	0xbdaea7d6	-0.08528106
220	0x3d203413	0.03911216
221	0xbd64c36f	-0.055850442
222	0xbe15e9b0	-0.14639926
223	0xbcc91352	-0.024545345
224	0xbc90e9cb	-0.017689606
225	0xbd344f0a	-0.04402069
226	0xbe13adc3	-0.14421754
227	0xbd9206df	-0.07130217
228	0x3e04fadd	0.12986322
229	0x3d3169fa	0.043313958
230	0xbe2baafd	-0.16764446
231	0xbd98826d	-0.07446752
232	0x3bba641b	0.005688203
233	0x3e387ae0	0.18015623
234	0x3d590041	0.052978758
235	0xbe58128e	-0.21100828
236	0xbe4cd07e	-0.20001408
237	0x3d98df64	0.074644834
238	0x3e109daf	0.14122652
239	0x3d5c5560	0.053792357
240	0xbde2ecdc	-0.110803336
241	0xbdbf280c	-0.0933381
242	0x3cb237f4	0.021755196
243	0x3e0e3526	0.13887462
244	0x3d0c06c4	0.03418614
245	0xbe20b9a0	-0.1569581
246	0x3c814434	0.015779592
247	0x3dc5cc86	0.096581504
248	0x3d730441	0.05933023
249	0x3dc77d3f	0.09740686
250	0x3d6091ad	0.054826427
251	0xbe49f05b	-0.19720595
252	0x3d29f197	0.041490164
253	0x3d757458	0.059925407
254	0xbcaa93a8	-0.020822361
255	0xbd6abe92	-0.05731065

conv2.bias f4 [16]
0	0x3d6f0b52	0.058360405
1	0x3dc4ff69	0.09619028
2	0xbe8572aa	-0.26064044
3	0xbe840ce7	-0.25791094
4	0x3ec1e6ef	0.378715
5	0x3d421c7b	0.047390442
6	0xbd93991c	-0.07206938
7	0x3e57eb0d	0.21085759
8	0xbda78774	-0.081801325
9	0xbe455fca	-0.19274822
10	0x3d18ffdf	0.037353393
11	0xbe32ff64	-0.17480236
12	0x3e3017f1	0.17196633
13	0x3edb7fb4	0.42870867
14	0xbf437904	-0.7635653
15	0xbd6b877f	-0.057502266

fc1.weight f4 [120, 400]
0	0x3bf3a9d1	0.007436015
1	0x3d065eba	0.032805182
2	0x3c7dc0ac	0.015487831
3	0x3d8bd057	0.06826847
4	0x3c5306ac	0.012880009
5	0xbcd517a0	-0.026012242
6	0xbd1b5e9c	-0.037932023
7	0xbaa36960	-0.0012467317
8	0x3c2be9d1	0.010492758
9	0x3b2a39e1	0.002597444
10	0xbcc001ec	-0.023438416
11	0x3cda545d	0.026651556
12	0xbd835f2b	-0.06414636
13	0xbd9f4ff2	-0.0777892
14	0xbca7b95c	-0.020474128
15	0x3cdf3925	0.027248928
16	0xbd539d53	-0.051663708
17	0xbbd70617	-0.0065620053
18	0xbd1622cc	-0.03665428
19	0xbc73aa73	-0.014872181
20	0xbd927c68	-0.07152635
21	0xbd756ff0	-0.059921205
22	0xbbf0feac	-0.007354578
23	0x3a941cce	0.0011300088
24	0x3c5467f5	0.012964238
25	0xbd38858d	-0.04504924
26	0xbca6b02d	-0.020347679
27	0xbd2405c0	-0.040044546
28	0xbd5964a4	-0.053074494
29	0x3bba3c73	0.0056834756
30	0x3cf5b7d7	0.029994888
31	0x3d43a398	0.047763437
32	0xbd237bbd	-0.039912928
33	0xbce6982e	-0.028148737
34	0xbd7fc82b	-0.062446754
35	0xbb0f6c44	-0.00218846
36	0x3ca8f90a	0.020626564
37	0xbae793ec	-0.0017667986
38	0x3c8837d8	0.01662819
39	0x3c3e312b	0.011608402
40	0x3c1fe23c	0.009758528
41	0x3c55d59b	0.013051416
42	0x3c16a169	0.009193757
43	0xbc96332d	-0.01833495
44	0xbcadf055	-0.021232763
45	0x3d4c909b	0.049942594
46	0xbc6c6413	-0.014428156
47	0xbc9c5c0a	-0.019086856
48	0x3d8b8f23	0.068144105
49	0x3d8ea321	0.06964708
50	0x3cfeb6c9	0.031093018
51	0x3c7b4315	0.015335818
52	0x3b89044c	0.0041814204
53	0xbd16dc35	-0.0368311
54	0xbb819508	-0.0039545335
55	0x3d8d95e1	0.06913353
56	0x3c7b24fc	0.015328642
57	0x3d7df92a	0.0620052
58	0xbd4efdbe	-0.050534956
59	0xbc627c7c	-0.013823625
60	0x3c1a80cf	0.009430124
61	0xbcd33651	-0.025782736
62	0x3d2172b6	0.039416037
63	0xbd02ea24	-0.031961575
64	0xbcd0331d	-0.025414998
65	0x3cb07c8f	0.02154377
66	0xbc1f0271	-0.009705172
67	0x3c85e00f	0.016342191
68	0xbc86ae34	-0.016440488
69	0x3c56fa5c	0.013121214
70	0x3d452ea0	0.04814017
71	0xbd268cb6	-0.040661536
72	0xbd027853	-0.03185303
73	0x3d082398	0.03323707
74	0xbd5518b8	-0.052025527
75	0x3c63cfd8	0.013904534
76	0xbd243238	-0.040086955
77	0x3b638ab4	0.0034720125
78	0xbcd30832	-0.025760744
79	0x3c42d20e	0.011890901
80	0x3d2b9b60	0.041896224
81	0xbcfbe8c7	-0.030750645
82	0x3a69aaca	0.0008913694
83	0xbba3bcf5	-0.0049968907
84	0xbcb00871	-0.0214884
85	0x3d274534	0.04083748
86	0x3c8327fc	0.016010277
87	0xbcf4c715	-0.029880086
88	0xbb6ea8b6	-0.0036416478
89	0xbc16da38	-0.009207301
90	0x3d29bb4d	0.04143839
91	0xbc4cd792	-0.012502568
92	0x3b0291fe	0.0019923444
93	0xbd861101	-0.06546212
94	0xbcb0ce96	-0.021582883
95	0x3c9a189b	0.01881056
96	0x3cfda66a	0.030963141
97	0xbc47ad16	-0.012187263
98	0xbd1bcecb	-0.03803901
99	0x3ca4d2a6	0.020119976
100	0x3cdab165	0.026695916
101	0x3b8be968	0.0042697676
102	0x3d23136e	0.03981345
103	0x3d463592	0.048390932
104	0xbbf90344	-0.0075992662
105	0xbc23a194	-0.009987254
106	0xbbcdf63b	-0.0062854565
107	0x3ca560b1	0.020187708
108	0xbd73dfb2	-0.059539504
109	0xbc36c7c4	-0.011156026
110	0xbb401d20	-0.0029314235
111	0x3c022b58	0.007944904
112	0xbb835c8e	-0.004008836
113	0x3d1c7f39	0.038207266
114	0xbd478370	-0.048709333
115	0x3d097f43	0.03356863
116	0x3c419708	0.011815794
117	0x3c180f5f	0.0092810085
118	0xbb88d75f	-0.004176065
119	0x3c3d49a2	0.0115532
120	0x3baeb615	0.0053317645
121	0x3d459b6b	0.04824392
122	0xbc9b7eb6	-0.018981319
123	0x3c384b7a	0.011248464
124	0xbbeff80b	-0.00732327
125	0x3bf82182	0.007572354
126	0x3ca6c562	0.020357791
127	0xbc489c5d	-0.012244311
128	0xbd410c4f	-0.04713088
129	0x3befa5ec	0.0073134806
130	0x3db45cef	0.08806788
131	0x3d3be53a	0.045872904
132	0x3d9fedaf	0.078090064
133	0xbc5a2cc2	-0.013316335
134	0x3ccb22f3	0.024796939
135	0x3b04f28a	0.0020286166
136	0x3d49a3e6	0.04922857
137	0x3b46f3dc	0.0030357754
138	0xbd5805e6	-0.05274
139	0x3cee13ca	0.02906217
140	0xbc9af04b	-0.018913409
141	0x3d862c66	0.06551437
142	0xbc8f030b	-0.017457506
143	0x3d309eb8	0.043120116
144	0x3b6031ea	0.0034209439
145	0x3d4a4407	0.049381282
146	0x3cd4af60	0.025962532
147	0x3cb20529	0.021730976
148	0x3d4acc35	0.049511153
149	0x3cabf0cd	0.020988846
150	0x3c1ec26b	0.009689908
151	0x3ca47b15	0.020078221
152	0xb9f104f2	-0.00045970787
153	0x3c915fc8	0.017745867
154	0xba032f26	-0.0005004279
155	0xbcdece3b	-0.027197948
156	0x3d61ceeb	0.055128973
157	0x3d4a42c2	0.04938007
158	0xbd1a80b3	-0.037720393
159	0x3d04bb87	0.032405403
160	0xbd197f97	-0.037475195
161	0xb9e26007	-0.00043177625
162	0x3bb0a7e2	0.005391107
163	0xbd8c1890	-0.068406224
164	0xbc9c6815	-0.019092599
165	0xbd2118e1	-0.039330367
166	0x3cc7e048	0.024398938
167	0x3d0577f5	0.032585103
168	0xbc1b3071	-0.009471999
169	0xbd8c458d	-0.06849203
170	0xbd529794	-0.051414087
171	0xbd0c2051	-0.034210507
172	0xbd3cb77d	-0.046073426
173	0x3c0b427c	0.008499738
174	0x3c88c07e	0.01669335
175	0x3d6763cf	0.05649167
176	0xbce38b03	-0.027776247
177	0xbd1f9ab2	-0.03896589
178	0xbd962133	-0.07330551
179	0xbd8b5212	-0.06802763
180	0x3d0202ba	0.03174088
181	0x3c48cbe1	0.01225564
182	0xbd97b00f	-0.074066274
183	0xbd7b8357	-0.061404552
184	0xbd85976e	-0.065230235
185	0xbd118027	-0.035522606
186	0x3cd1017b	0.025513401
187	0xbced0d74	-0.028937079
188	0xbcd83092	-0.026390348
189	0x3b822a0e	0.0039722985
190	0xbbc3ac26	-0.0059714494
191	0xbca5e23e	-0.020249482
192	0x3ce7358a	0.028223772
193	0xbd493b60	-0.04912889
194	0x3d2915ef	0.041280683
195	0x3c8c4051	0.017120512
196	0x3da30dc0	0.07961607
197	0xbc85f441	-0.01635182
198	0x3c0a9dae	0.008460445
199	0x3d50ba29	0.050958786
200	0x3dbb8265	0.0915573
201	0xbc38f0b0	-0.011287853
202	0x3cb82951	0.022480639
203	0x3c417844	0.011808459
204	0xbd14c063	-0.036316287
205	0x3d267082	0.04063464
206	0xbc2dc078	-0.01060497
207	0xbd42ca8d	-0.04755645
208	0xbd288c2c	-0.041149303
209	0xbcd282ab	-0.025697073
210	0x3d0c68df	0.0342797
211	0xbc474e95	-0.0121647315
212	0x3cb59c29	0.02216919
213	0xbbe57aef	-0.00700318
214	0x3ce2af3a	0.027671445
215	0xbc8b0f07	-0.016974939
216	0x3d561bdc	0.052272663
217	0xbceb0274	-0.028687693
218	0xbc86a4aa	-0.01643594
219	0x3ce2d171	0.02768776
220	0xbcb7857c	-0.022402517
221	0x3cfc066c	0.030764781
222	0xbd2cd1af	-0.042192157
223	0xbcf0a6ea	-0.029376466
224	0x3d0eb3f9	0.034839604
225	0x3d0b55d7	0.03401741
226	0xbbe152c4	-0.0068763215
227	0xbc82a186	-0.015946161
228	0xbc29f00a	-0.010372171
229	0x3c822744	0.015887864
230	0x3d47b21e	0.04875385
231	0x3d17af32	0.037032314
232	0xbca39ca4	-0.019972153
233	0xbc8aebaa	-0.016958077
234	0xbd3fd35a	-0.04683242
235	0xbc96ea4b	-0.018422266
236	0xbcdfd4d4	-0.027323164
237	0xbbff7846	-0.00779632
238	0x3bee5920	0.007273808
239	0xbcb2ed99	-0.021841811
240	0xbc5f1937	-0.0136168515
241	0x3cff8c11	0.031194719
242	0x3c8dbf44	0.017303117
243	0x3d3cd61f	0.04610264
244	0x3d810085	0.06298927
245	0x3b81bd77	0.0039593535
246	0x3d034126	0.032044552
247	0x3d57a368	0.05264607
248	0xbd4ea71d	-0.05045234
249	0xbd081968	-0.033227354
250	0x3d320777	0.04346415
251	0x3a496c1c	0.0007683651
252	0x3d334194	0.043763712
253	0x3c48e9ef	0.012262805
254	0x3ce72654	0.028216518
255	0x3cd08241	0.025452735

fc1.bias f4 [120]
0	0xbd0ce94e	-0.034402184
1	0x3d8c760b	0.068584524
2	0xbd8d76da	-0.06907435
3	0x3cfa4bbe	0.030553695
4	0x3d252f9c	0.040328607
5	0x3db5eb5b	0.08882781
6	0x3c86bc95	0.016447345
7	0xbb482bf8	-0.0030543786
8	0x3d1bee29	0.038068924
9	0x3d2c565a	0.04207454
10	0xbc980b0a	-0.018559951
11	0xbcb1f65b	-0.021723917
12	0xbd9a600a	-0.07537849
13	0x3c818fba	0.015815604
14	0x3d57eb8d	0.052714873
15	0xbc7aa485	-0.015298014
16	0x3dea58e3	0.11442735
17	0x3e68b2c3	0.22724442
18	0x3e00dcdd	0.12584253
19	0xbd5d7839	-0.05406973
20	0xbb20ae0e	-0.0024517807
21	0x3e29afc4	0.16570956
22	0xbc2a2037	-0.010383657
23	0x3dcd381e	0.10020469
24	0x3daa9d85	0.08330826
25	0x3ce6bd40	0.028166413
26	0x3d091ff3	0.033477735
27	0x3a4a43ef	0.00077158114
28	0xbb84b1ac	-0.0040495005
29	0xbbf15765	-0.0073651546
30	0x3d104ca7	0.03522935
31	0x3cd6da2b	0.026227077
32	0x3d8804fa	0.06641574
33	0xbd487e5f	-0.048948642
34	0x3c9023c6	0.017595183
35	0x3daca899	0.08430595
36	0xbd679fa5	-0.056548733
37	0x3d943687	0.07236963
38	0xbc19b157	-0.00938066
39	0xbd80d764	-0.062910825
40	0xbd186ce8	-0.037213236
41	0xbd340af5	-0.043955762
42	0xbd293286	-0.04130795
43	0x3cb2c4a2	0.021822277
44	0x3c962d52	0.018332157
45	0xbd9c946c	-0.07645497
46	0xbd87fa79	-0.06639571
47	0x3d742370	0.05960411
48	0xbc6ef3e6	-0.014584517
49	0xbd0c6674	-0.034277394
50	0xbd78d8e7	-0.06075373
51	0xbd66868c	-0.056280658
52	0xbe609b07	-0.21934138
53	0x3d0b1c97	0.033962812
54	0x3d800f15	0.06252877
55	0x3dde737a	0.10861869
56	0x3d5b2ddc	0.05351053
57	0x3d785bf2	0.06063456
58	0x3cba86d6	0.022769373
59	0x3c35936a	0.0110825095
60	0xbcd56ea7	-0.02605374
61	0x3d7092ad	0.05873363
62	0xbd100067	-0.035156634
63	0xbdb0bfaa	-0.08630307
64	0xbcb319a9	-0.021862822
65	0x393cef75	0.00018018282
66	0x3db49758	0.08817929
67	0x3d092dce	0.03349095
68	0xbdfc3a48	-0.12315804
69	0xbb375f07	-0.0027980225
70	0x3bddf1ec	0.006773224
71	0xbe121c5e	-0.14268634
72	0xbbb79f3d	-0.0056036995
73	0x37d9069e	2.5871497e-05
74	0x3e17ac5f	0.14811848
75	0x3b2e1cd1	0.002656747
76	0x3d37ba85	0.044855613
77	0xbaac14e0	-0.001312878
78	0xbc0563fb	-0.008141513
79	0xbdb4969b	-0.08817788
80	0x3dc9c151	0.09851325
81	0x3bd52d5e	0.0065056523
82	0x3b484244	0.0030557076
83	0xbdc9f48e	-0.09861098
84	0x3d35e5ff	0.044408794
85	0xbd4ba397	-0.04971656
86	0x3d765ad7	0.060145225
87	0xbe183785	-0.14864929
88	0x3c8aaccc	0.0169281
89	0x3bf663c5	0.0075192177
90	0xbd939d54	-0.07207742
91	0x3e00194f	0.12509654
92	0x3c7f6eb4	0.0155903585
93	0xbc8788bf	-0.016544698
94	0xbd06afaf	-0.03288239
95	0x3dda6205	0.10663227
96	0x3e0aa2d6	0.1353868
97	0xbdc00fb3	-0.093779944
98	0xbcafc7e8	-0.021457627
99	0x3d056494	0.032566622
100	0x3d0e77fb	0.03478239
101	0xbc82b6d4	-0.01595632
102	0x3d75772b	0.0599281
103	0xbcb9a406	-0.02266122
104	0xbcc60684	-0.024173029
105	0x3d11b193	0.03556974
106	0x3d2181b0	0.03943032
107	0xbdde2f1b	-0.108488284
108	0x3db04267	0.08606415
109	0x3a35ce22	0.0006935318
110	0xbc1fd1c7	-0.009754605
111	0xbb4ae7ea	-0.0030960985
112	0x3d375bf0	0.044765413
113	0xbdbee9bf	-0.09321927
114	0x3b25f50b	0.002532306
115	0xbcb2e390	-0.021837026
116	0xbce758b4	-0.02824054
117	0xbcb2795d	-0.021786386
118	0xbd34eba1	-0.044170026
119	0x3c3a2ad5	0.011362751

fc2.weight f4 [84, 120]
0	0x3b732d8d	0.0037106008
1	0xbd7bfd68	-0.061520964
2	0x3dcbf5df	0.099590056
3	0xbc8f0261	-0.017457189
4	0x3d6f73be	0.05845999
5	0xbc597823	-0.013273272
6	0x3bcb1b56	0.006198327
7	0x3c6c7501	0.014432193
8	0xbd1b5b12	-0.03792865
9	0xbd859671	-0.06522835
10	0xbdf4738d	-0.11936102
11	0x3d934d2b	0.07192453
12	0x388d51a7	6.738613e-05
13	0xbd487ea5	-0.048948903
14	0xbc92c622	-0.017916743
15	0x3d3e73e8	0.046497256
16	0xbd4263b5	-0.04745837
17	0x3ccd1d58	0.025038406
18	0x3c7d7cc7	0.015471644
19	0x3b12cf3f	0.002240136
20	0x3d99a7fd	0.07502744
21	0xbdc67b59	-0.096914954
22	0x3da39ae4	0.079885274
23	0xbd949f28	-0.07256919
24	0xbc566f46	-0.013088053
25	0xbd94a4fd	-0.072580315
26	0xbcd15f46	-0.025558125
27	0x3d342613	0.043981623
28	0xbd1a0414	-0.037601545
29	0xbccf01ac	-0.025269352
30	0x3d91d1ef	0.0712012
31	0xbd1577c1	-0.03649116
32	0x3db426c4	0.087964565
33	0x3db19f2e	0.08672939
34	0xbcdfb0e8	-0.027306035
35	0xbd8ed5ad	-0.06974349
36	0xbd62d549	-0.055379186
37	0x3d8516dd	0.064985014
38	0x3d9ed66c	0.077557415
39	0x3d4d2479	0.05008361
40	0xbc1eba83	-0.009688023
41	0x3d3a76a5	0.045523304
42	0x3dfd1fbc	0.123595685
43	0x3dffb9ba	0.124865964
44	0x3beb9996	0.0071899397
45	0x3d7d6d7d	0.061871994
46	0xbc21ee94	-0.009883542
47	0xbe05005c	-0.12988418
48	0x3a8ecd88	0.0010894993
49	0xbd972a96	-0.073811695
50	0xbd9a52d7	-0.07535332
51	0xbc6842ed	-0.014176113
52	0x3dd0f1a8	0.10202342
53	0x3a8666b4	0.0010253997
54	0xbd89b3e4	-0.067237645
55	0x3d26cf8b	0.040725272
56	0x3c2bad34	0.010478307
57	0x3c9caf21	0.019126477
58	0xbdab6ea5	-0.08370713
59	0x3d2734a3	0.040821683
60	0x3d495e52	0.049162216
61	0xbd903fde	-0.07043432
62	0xbd8dc8c6	-0.0692306
63	0x3c5c9a42	0.013464512
64	0x3ceea0eb	0.029129466
65	0x3cf68617	0.030093236
66	0x3d950c57	0.07277744
67	0x3d9ec75f	0.07752871
68	0x3dd3d8f7	0.10344117
69	0x3dbdbc2b	0.09264406
70	0x3dbe142c	0.09281191
71	0x3dc95dc3	0.09832337
72	0x3d824a74	0.06361857
73	0x3d8a83c3	0.06763413
74	0xbd82c412	-0.06385054
75	0x3d0834a3	0.033253323
76	0xbd851b47	-0.06499343
77	0xbd45ee23	-0.048322808
78	0xbd0b3517	-0.033986177
79	0x3dcff3dd	0.10153935
80	0xbd09601d	-0.033538926
81	0xbd07b22d	-0.033128906
82	0xbd42485e	-0.047432296
83	0x3c6d21c4	0.014473382
84	0xba31d9e0	-0.000678448
85	0x3dc600b6	0.09668104
86	0x3cac1a11	0.021008523
87	0x3ca145e2	0.019686643
88	0x3d75e446	0.06003215
89	0xbd09c9c0	-0.03363967
90	0x3d970ec6	0.07375865
91	0x3cc6189e	0.02418166
92	0xbd810259	-0.06299276
93	0x3de25a4e	0.110523805
94	0x3dcaa76e	0.09895216
95	0xbd4e6aa3	-0.050394665
96	0x3d67efad	0.056625057
97	0xbc3855a5	-0.011250888
98	0x3d1f58f9	0.03890321
99	0xbd37218d	-0.04470973
100	0x3ca66b86	0.020314943
101	0x3d9f2b9c	0.0777199
102	0x3c829eae	0.015944805
103	0x3d0edac5	0.034876604
104	0x3bf05f11	0.0073355515
105	0xbdc75331	-0.097326644
106	0xbc17905a	-0.009250725
107	0xbcfdcb43	-0.030980712
108	0xbc92bcc2	-0.017912272
109	0x3d0b1316	0.03395375
110	0xbd7e70a2	-0.062119134
111	0x3d7b89cd	0.061410714
112	0x3b21ead3	0.0024706617
113	0xbc886063	-0.016647523
114	0xbd8ee7e4	-0.069778234
115	0x3d952e53	0.07284226
116	0xbb85c640	-0.004082471
117	0x3ace53a1	0.0015741476
118	0x3ca7f2bf	0.020501493
119	0xbdc3d9d4	-0.09563032
120	0xbd8deef4	-0.06930342
121	0xbdb3a56a	-0.087717846
122	0x3c50fbe1	0.012755365
123	0xbba78475	-0.0051122257
124	0xbdb38955	-0.087664284
125	0x3ba73b98	0.0051035397
126	0xbd2ddbbd	-0.042445887
127	0xbddef658	-0.1088683
128	0xbd095d2e	-0.03353613
129	0xbc5a023d	-0.013306198
130	0x3de3268b	0.11091336
131	0xbdabbd49	-0.08385713
132	0xbd1f7461	-0.038929347
133	0xbc4de69f	-0.012567191
134	0x3dd182ad	0.102300026
135	0x3dc1f6a2	0.094708696
136	0xbcfba2f9	-0.03071736
137	0x3c4168f4	0.011804808
138	0xbce7522e	-0.028237429
139	0x3dd6c3eb	0.10486587
140	0x3dc042e5	0.09387759
141	0xbdae4afd	-0.08510397
142	0xbb61d819	-0.003446108
143	0x3d284549	0.0410817
144	0x3dc4be71	0.09606636
145	0xbdc9b7e3	-0.09849527
146	0x3cdeb080	0.027183771
147	0x3da25a7e	0.07927416
148	0xbdd26f3b	-0.10275122
149	0x3be2b62a	0.0069186883
150	0xbd8a40a8	-0.067506135
151	0x3d8716c3	0.06596138
152	0x3c0a47e8	0.008439995
153	0x3db2d3d0	0.08731806
154	0x3c20d8b8	0.009817295
155	0xbd91ba36	-0.07115595
156	0xbd7a4b7d	-0.061107147
157	0x3d004824	0.0313188
158	0x3d89d831	0.06730688
159	0xbcc196ef	-0.023631541
160	0xbd53ca70	-0.05170673
161	0xba67ac09	-0.0008837586
162	0xbca92e50	-0.020651966
163	0x3da59538	0.08085102
164	0x3d233e73	0.039854478
165	0x3d998021	0.07495142
166	0xbd59415c	-0.053040847
167	0xbd836b1e	-0.06416915
168	0xbd5e5667	-0.05428162
169	0xbdb19fcc	-0.08673057
170	0xbd2d3f31	-0.042296592
171	0x3e0ec321	0.13941623
172	0xbd77316e	-0.060349874
173	0xbd29ff6f	-0.041503366
174	0x3c97ccd9	0.018530296
175	0xbcdb8805	-0.026798258
176	0x3d1786cd	0.03699379
177	0xbc9744be	-0.018465396
178	0xbda0b763	-0.07847478
179	0xbd206e92	-0.039167948
180	0x3c0b790d	0.0085127475
181	0xbc3ce54a	-0.011529276
182	0x3e01754a	0.12642398
183	0xbdca3659	-0.09873647
184	0x3dd31641	0.10306979
185	0xbdb54053	-0.088501595
186	0x3dcef3fb	0.10105129
187	0xbd8d8686	-0.06910424
188	0xbbe42c1f	-0.0069632675
189	0x3c4712d2	0.012150483
190	0xbd64fddd	-0.055906165
191	0x3bda8618	0.0066688173
192	0xbcc60bae	-0.024175491
193	0xbdbbcec4	-0.09170297
194	0x3df9389b	0.12169
195	0x3d804d02	0.06264688
196	0xbdbda402	-0.09259798
197	0xbd8f2dc2	-0.069911495
198	0xbd9eedd8	-0.07760209
199	0x3bbdb5fd	0.005789517
200	0xbdcfe16c	-0.10150418
201	0x3e23a31c	0.1598019
202	0x3e02cb97	0.12772976
203	0xbc5e1ec7	-0.013557143
204	0x3c434fa4	0.011920843
205	0xbd3cc98a	-0.04609064
206	0x3dbbbe4f	0.09167158
207	0x3c8bd810	0.0170708
208	0xbd84d750	-0.0648638
209	0xba7c5eda	-0.0009627171
210	0x3d08b5db	0.033376556
211	0xbd467d10	-0.048459113
212	0x3dfd76ea	0.12376197
213	0xbd857b86	-0.06517701
214	0xbd55bdb3	-0.052182864
215	0x3d91b88c	0.07115278
216	0x3d9e913c	0.07742545
217	0x3d80095a	0.06251784
218	0x3d06ee48	0.032942086
219	0xbd1d73ee	-0.038440637
220	0x3d80dd6f	0.06292235
221	0xbd4824d3	-0.048863243
222	0x3dc5633b	0.09638067
223	0xbe10e734	-0.14150697
224	0x3dc3f0f2	0.09567441
225	0xbd8fa03a	-0.07012983
226	0x3e2344e5	0.1594425
227	0x3d4816c1	0.048849825
228	0xbc21f355	-0.009884675
229	0x3de022b8	0.10944122
230	0x3d83a75f	0.06428408
231	0x3c39fb67	0.011351443
232	0x3d48abcd	0.048991967
233	0x3d94b48d	0.07261
234	0xbd950cd6	-0.07277839
235	0xbdaf22f3	-0.08551588
236	0xbd89bfd2	-0.0672604
237	0xbd06ed51	-0.032941166
238	0x3da08896	0.07838552
239	0xbe07f7ae	-0.13278076
240	0x3ab987ef	0.0014154891
241	0xbcc03f8b	-0.0234678
242	0x3d2b5367	0.041827586
243	0xbdaa2d5d	-0.083094336
244	0x3d51b0e3	0.051194083
245	0xbdaaf015	-0.08346573
246	0x3d992826	0.07478361
247	0xbdb900a5	-0.09033326
248	0xbb821fbe	-0.003971069
249	0x3d0c9930	0.03432578
250	0x3d6fb823	0.058525216
251	0x3d675184	0.056474224
252	0x3d173bcc	0.03692226
253	0xbd3e4c19	-0.04645929
254	0xbd8eb465	-0.06968001
255	0xbda4665d	-0.08027337

fc2.bias f4 [84]
0	0xbe82602f	-0.25464007
1	0x3e04759f	0.12935494
2	0xbd0247d3	-0.03180678
3	0xbdb11c66	-0.08647995
4	0x3e179fae	0.14807007
5	0x3dd7ecc9	0.1054321
6	0xbcaab7dd	-0.020839626
7	0xbbab5e3c	-0.0052297395
8	0x3d8680bf	0.06567525
9	0xbe2eddc6	-0.17076787
10	0xbdc8fd65	-0.09813956
11	0xbdba06a9	-0.090833016
12	0x3ddde0ea	0.108339146
13	0xbdb04d34	-0.08608475
14	0x3da36b4d	0.079794504
15	0x3e837a8f	0.25679442
16	0xbc818863	-0.015812105
17	0x3cea4d34	0.028601266
18	0xbdb5c559	-0.08875532
19	0x3e1893a3	0.14900069
20	0x3cb0354d	0.02150979
21	0x3cc8ae13	0.024497068
22	0x3d2b34b9	0.041798327
23	0x3da7bebd	0.08190677
24	0x3d5a854c	0.053349778
25	0xbdab420c	-0.08362207
26	0xbd13993c	-0.036034808
27	0x3c697d30	0.014251038
28	0x3e18f3dd	0.14936776
29	0xbdc84fd5	-0.09780852
30	0x3df085e9	0.11744291
31	0x3d83575c	0.06413147
32	0xbc33811e	-0.010956077
33	0x3c8f6877	0.017505867
34	0x3d80e5fd	0.06293867
35	0x3c4a65e2	0.012353392
36	0xbddd381e	-0.10801719
37	0xbddf6b93	-0.1090919
38	0xbd489f81	-0.04898024
39	0xbd1cd9dd	-0.038293708
40	0x3d8e118b	0.0693694
41	0x3d0c1c5e	0.03420674
42	0xbd257645	-0.040395994
43	0xbcd5dc1b	-0.026105931
44	0xbd2d702d	-0.042343307
45	0xbb11fd66	-0.0022276281
46	0xbd1205ff	-0.03565025
47	0xbd3bdd84	-0.04586555
48	0x3e1432be	0.14472482
49	0x3da3e52c	0.080026954
50	0xbcd2c8d2	-0.025730524
51	0xbd1ceaa6	-0.038309716
52	0xbd6f2ce3	-0.058392417
53	0x3e2d96fb	0.16952126
54	0x3cdac64d	0.026705885
55	0xbcdba2ba	-0.026810993
56	0xbe702896	-0.23452982
57	0xbd29a861	-0.041420344
58	0xbd53d982	-0.051721103
59	0x3def411d	0.11682341
60	0xbd30a9e0	-0.043130755
61	0xbe31b7ab	-0.1735522
62	0xbe2e95d0	-0.17049336
63	0x3c631adf	0.013861387
64	0xbb5e4248	-0.0033914018
65	0xbd1ffabc	-0.03905748
66	0x3de902bf	0.11377477
67	0xbe6f9776	-0.23397622
68	0xbb85ff7b	-0.0040892935
69	0x3d97a819	0.07405109
70	0x3d672e61	0.056440715
71	0x3d6692ac	0.05629222
72	0x3e2b2546	0.16713437
73	0x3df068a6	0.1173871
74	0xbd0026f8	-0.031287163
75	0xbca03b35	-0.019559482
76	0xbcc87eef	-0.02447459
77	0x3e443e80	0.19164467
78	0x3d3273dd	0.043567527
79	0x3d923526	0.071390435
80	0xbe36a168	-0.17835009
81	0xbbfe8967	-0.0077678445
82	0x3d95a9cc	0.07307777
83	0x3e83822f	0.2568526

fc3.weight f4 [10, 84]
0	0x3e054ba6	0.13017139
1	0x3e777c30	0.24168468
2	0x3e0a9005	0.13531502
3	0xbe3655ca	-0.17806163
4	0x3eb38265	0.3506042
5	0xbdd2a215	-0.10284821
6	0x3e30dd1f	0.17271851
7	0x3d3b7462	0.04576529
8	0xbd198ecb	-0.037489694
9	0xbdc53878	-0.09629911
10	0x3d850181	0.064944275
11	0xbdeab7ea	-0.1146086
12	0x3a50725f	0.0007951613
13	0xbd13e16a	-0.036103643
14	0x3d3def3b	0.046370726
15	0x3d2466e3	0.040137183
16	0x3cf7c3f2	0.030244801
17	0xbdce1660	-0.100628614
18	0xbdb1ef7b	-0.086882554
19	0x3d66c939	0.056344245
20	0x3e5b798f	0.2143309
21	0xbe917b8b	-0.28414568
22	0x3ce4923b	0.02790176
23	0xbe144e00	-0.1448288
24	0x3e8cd3a7	0.27505228
25	0xbd6e4a23	-0.05817617
26	0xbda958bd	-0.082688786
27	0xbd2e956e	-0.042622976
28	0xbddb413f	-0.10705804
29	0xbdb4b591	-0.088236935
30	0xbe001699	-0.1250862
31	0xb9c3b16a	-0.00037325482
32	0xbe88a242	-0.26686293
33	0xbe55fc5f	-0.20897053
34	0xbcdf15cc	-0.027232073
35	0x3dbfbfe3	0.09362771
36	0x3e142ce5	0.14470251
37	0xbc474772	-0.01216303
38	0xbd901133	-0.070345305
39	0xbe1b0b34	-0.15140992
40	0xbd8b50fc	-0.06802556
41	0x3e234c1b	0.15947
42	0x3bf48e8d	0.0074632824
43	0x3e120545	0.14259823
44	0xbd7c4f7b	-0.061599236
45	0xbbc75f73	-0.0060843765
46	0xbd7f3733	-0.0623085
47	0x3db5d957	0.08879345
48	0x3e1eb2f6	0.15497956
49	0xbd05361a	-0.0325223
50	0xbe267c17	-0.16258274
51	0xbca084cf	-0.019594578
52	0xbe2b0768	-0.16702044
53	0xbe27934f	-0.16364788
54	0x3e253d12	0.16136578
55	0xbe2ddfa5	-0.16979845
56	0xbd1248c5	-0.03571393
57	0xbdfd1c9f	-0.12358975
58	0x3d9b9d11	0.075983174
59	0xbcaae232	-0.020859811
60	0x3e106c51	0.1410382
61	0x3ecba825	0.39776722
62	0xbd442fec	-0.047897264
63	0x3e9ba06f	0.3039584
64	0xbe16945a	-0.14705029
65	0xbe18ffa9	-0.14941277
66	0xbe5dbdb1	-0.21654393
67	0xbe0b25fa	-0.13588706
68	0xbcafb7cf	-0.021449951
69	0x3db603c6	0.088874385
70	0xbe2ffa7c	-0.17185396
71	0xbe7d87a3	-0.24758773
72	0x3e335c5c	0.17515701
73	0xbd2c9664	-0.04213561
74	0xbd8e7761	-0.069563635
75	0xbcfa5aa4	-0.030560799
76	0x3df2e29b	0.11859628
77	0x3e6c59dd	0.23081155
78	0xbbdaa514	-0.006672511
79	0x3e1160fe	0.14197156
80	0x3e1219db	0.14267676
81	0x3e150214	0.14551574
82	0x3dab6dc7	0.08370548
83	0xbe67dc92	-0.22642735
84	0x3e42de6a	0.19030157
85	0xbe19a6df	-0.15005063
86	0x3ca35d4f	0.019941954
87	0x3d3ad8c4	0.04561688
88	0xbe83e86e	-0.25763267
89	0xbcde0995	-0.027104178
90	0x3e374500	0.17897415
91	0xbdab23cc	-0.08356437
92	0x3d158cfb	0.036511403
93	0x3e885197	0.26624748
94	0x3c839fc4	0.016067393
95	0x3e6b47d7	0.22976623
96	0xbde76d0c	-0.11300096
97	0x3db4817d	0.088137604
98	0xbdfa536a	-0.12222941
99	0xbea907c0	-0.33013725
100	0x3deffbf6	0.117179796
101	0x3c01e39d	0.007927802
102	0xbd432c24	-0.047649518
103	0xbe460c38	-0.19340599
104	0x3d8afdb7	0.067866735
105	0xbdc5f255	-0.09665362
106	0x3dc688e6	0.0969408
107	0x3c613571	0.013745652
108	0x3dc4a553	0.096018456
109	0x3e86f5af	0.26359317
110	0x3dce0a7f	0.10060596
111	0x3d9dd61c	0.07706854
112	0xbea26525	-0.31717792
113	0xbe7cc697	-0.24685131
114	0x3d109958	0.03530249
115	0x3c3d18ce	0.011541558
116	0xbdd0533a	-0.10172124
117	0x3e89d35b	0.26919064
118	0xbdff7ea0	-0.12475324
119	0xbb981690	-0.0046413615
120	0x3e416254	0.18885165
121	0x3e872899	0.2639816
122	0xbc62f93e	-0.013853369
123	0x3dc5b25e	0.096531615
124	0x3e08f075	0.13372977
125	0xbe1eb7c5	-0.1549979
126	0xbce15368	-0.027505592
127	0xbe8ecaed	-0.27889195
128	0x3d860e67	0.06545716
129	0x3c40d568	0.01176963
130	0x3d54d381	0.05195952
131	0xbd8ab12c	-0.06772074
132	0xbe7a6ad0	-0.24454808
133	0xbdbc4655	-0.09193102
134	0x3e7bbb05	0.24583061
135	0x3df93a32	0.12169303
136	0x3d607bfb	0.054805737
137	0xbe193bdc	-0.14964241
138	0xbd473009	-0.048629794
139	0x3e09f3a3	0.13471846
140	0x3e4ec580	0.20192528
141	0xbe1f6215	-0.15564759
142	0x3e7d5235	0.2473839
143	0xbe116bfa	-0.14201346
144	0xbe485232	-0.19562605
145	0xbde2be96	-0.11071508
146	0x3d36bd13	0.04461391
147	0xbe5b4015	-0.21411164
148	0x3e4f4a72	0.20243242
149	0xbd3ada3b	-0.045618277
150	0x3e227911	0.15866496
151	0x3e7f78e2	0.24948457
152	0x3b7a6ab1	0.0038210566
153	0x3d969d2c	0.07354197
154	0x3d430e7e	0.047621243
155	0xbd3b794e	-0.045769982
156	0xbe9ed9e4	-0.31025612
157	0x3d571ade	0.052515857
158	0x3e47c2ac	0.19507855
159	0x3d46c256	0.048525177
160	0x3cc94c2c	0.024572454
161	0xbdcaeefc	-0.09908864
162	0xbde95660	-0.11393428
163	0xbd591d53	-0.05300648
164	0x3e1974f6	0.14986023
165	0x3e5475d8	0.20748079
166	0x3dbd497e	0.09242533
167	0xbe63cd36	-0.2224625
168	0xbdf55b66	-0.119803235
169	0x3e654893	0.22390966
170	0xbdeff1f2	-0.11716069
171	0xbad7e814	-0.0016472363
172	0x3e955021	0.29162696
173	0x3dc6f098	0.09713858
174	0x3e08171b	0.13290064
175	0xbd9fa599	-0.07795257
176	0xbcd2b7ef	-0.025722472
177	0xbda659e9	-0.08122618
178	0xbdb4757a	-0.088114694
179	0xbdbd7da7	-0.09252482
180	0x3e707961	0.23483802
181	0xbe3fbb35	-0.18723758
182	0xbcc8d859	-0.024517225
183	0x3e01641d	0.12635846
184	0xbd90b013	-0.070648335
185	0xbd0c74c8	-0.03429106
186	0x3d5f2ef3	0.054488134
187	0x3e1c15ab	0.1524264
188	0x3d37a196	0.044831835
189	0xbd6da129	-0.058015022
190	0xbdc72040	-0.09722948
191	0xbe395147	-0.18097411
192	0xbe50a506	-0.20375451
193	0x3c1d006b	0.009582619
194	0x3bf8646b	0.00758033
195	0x3e064ebf	0.13115977
196	0x3e672c57	0.22575508
197	0xbe8fe1e1	-0.2810202
198	0x3e6c05da	0.23049107
199	0x3e85f08e	0.2616009
200	0xbdee0855	-0.11622683
201	0xbe07125e	-0.131906
202	0xbe06e333	-0.13172607
203	0xbe1eb8f0	-0.15500236
204	0xbe2dcee0	-0.16973448
205	0xbe06f466	-0.13179168
206	0xbd66a4cc	-0.056309506
207	0x3dae1e79	0.08501906
208	0x3d406cdc	0.046978816
209	0xbd76dd05	-0.060269374
210	0x3e558f90	0.20855546
211	0x3e1b1711	0.15145518
212	0x3d7a47b1	0.061103527
213	0x3ec1a5c5	0.37821785
214	0x3ca376b8	0.01995407
215	0x3e6c388e	0.23068449
216	0x3eab1350	0.33413172
217	0x3d003bb9	0.031306956
218	0xbd5b3411	-0.05351645
219	0x3d826e82	0.06368734
220	0x3d79beca	0.060972966
221	0x3dd8d77f	0.105879776
222	0xbc2b05e1	-0.010438413
223	0xbe4ef83e	-0.20211884
224	0xbdfd578b	-0.12370213
225	0x3d3497f7	0.044090237
226	0x3e5b0f05	0.21392448
227	0x3e352e0e	0.1769335
228	0xbe0e8989	-0.13919653
229	0xbc424303	-0.011856797
230	0xbe56b74f	-0.20968364
231	0xbdae2cbb	-0.085046254
232	0xbc855094	-0.016273774
233	0x3e0595ed	0.13045473
234	0x3e159bd9	0.14610232
235	0xbd96b192	-0.073580876
236	0x3db52dc9	0.088466235
237	0xbe1618f8	-0.14657962
238	0x3e4711ae	0.19440338
239	0xbe02fb29	-0.12791122
240	0xbca7b039	-0.020469772
241	0x3dc23a2c	0.09483752
242	0xbe46f8fa	-0.19430915
243	0x3d7dccab	0.061962765
244	0x3e5496e3	0.20760684
245	0x3cf47651	0.029841574
246	0x3e9035d0	0.28166056
247	0xbe083fe6	-0.13305625
248	0xbd9aaac2	-0.07552101
249	0x3e665727	0.22494183
250	0x3e2fe2e7	0.171764
251	0xbe0e32c4	-0.13886553
252	0x3de1f740	0.11033487
253	0xbd6845a8	-0.056707054
254	0xbe4d8a13	-0.20072202
255	0xbaab9891	-0.0013091733

fc3.bias f4 [10]
0	0xbd9070ed	-0.07052789
1	0xbe999a56	-0.3000056
2	0x3e6d8eaf	0.2319896
3	0x3dbed64f	0.0931822
4	0x3edd3d96	0.4321105
5	0xbdb3c987	-0.08778673
6	0xbb8e3d7d	-0.004340826
7	0xbe3b7d66	-0.18309554
8	0x3e8d3262	0.27577502
9	0xbeb455a8	-0.352216
